chess-engine/qftu2qoi/checkpoints/epoch=0-step=200.ckpt (torch, 364931 bytes, 36 tensors)

model.0.weight f4 [32, 772]
0.030099988 -0.006077025 -0.012206497 0.021238847 -0.0057214596 0.032391857 0.029947435 0.02534445
-0.04518433 -0.09035426 -0.057782546 -0.0021598982 -0.08769181 0.06666335 -0.058233388 -0.05761784
0.027684044 -0.17848164 -0.102858156 -0.06930228 -0.071557 -0.1889529 -0.033499848 -0.05913748
-0.033835787 -0.01577818 -0.17775159 -0.11081257 0.10484943 -0.023083502 0.14205432 0.06359213
-0.1885605 -0.019584509 -0.09099816 -0.17098865 0.0521125 -0.101708725 -0.104784966 0.21570507
-0.142501 -0.094155595 0.08269667 -0.05596673 -0.07699804 0.10573759 -0.06874768 -0.19855805
-0.06943298 0.063701995 -0.26778248 -0.19164382 -0.12194993 0.03143867 0.24394235 -0.18855289
0.022509426 -0.012914512 -0.00089767075 -7.727075e-05 0.0085469 0.0013455107 -0.011503444 0.0030592654
0.14979938 0.015877917 0.052927017 -0.10751028 0.41470104 0.08272029 0.0060110656 0.05122176
0.38955286 -0.060623687 -0.20786358 -0.20586734 -0.105577216 -0.08769978 0.17471209 -0.13643256
-0.030963177 0.130115 -0.11626697 0.01757248 0.4780479 -0.089848354 -0.10341034 0.26085034
0.14936481 0.2610323 0.044361174 0.22955124 0.06474046 -0.12885639 0.43955314 0.3400981
0.39810222 -0.16035941 0.2429198 0.12976101 -0.21527372 -0.22631869 0.23859791 0.17942668
-0.11693643 0.25780365 -0.25914323 -0.20090424 0.24054816 0.3575065 -0.017562767 -0.10474885
-0.17533237 0.40444386 0.014389448 0.27423418 0.34393966 0.092384465 0.6034965 0.11947441
-0.0064509837 0.19352983 0.31389192 0.41455203 0.1539715 0.0368642 0.4764904 -0.06074462
0.13659154 0.28550044 -0.08050054 -0.14911632 0.07032898 -0.00075303484 0.1544375 0.208627
-0.046252523 -0.053279445 -0.21436957 0.0024626714 0.0042466214 -0.002705177 -0.12576358 -0.031623982
-0.063232176 0.053677175 -0.102413476 0.0041000997 -0.2081332 -0.11956036 0.0014768828 0.24829806
0.30064633 0.18393663 0.017106002 0.016056465 0.15012346 -0.055653412 -0.11731114 0.32549962
-0.013531986 -0.05760933 -0.015571371 0.05058603 -0.117854334 -0.089394815 -0.11509202 0.2970061
0.21084279 0.062197324 0.2610801 0.17418206 0.075475655 0.2342858 -0.06332867 0.4142237
0.26650307 -0.008934478 -0.013517194 0.32817128 -0.04852432 -0.12521267 0.15154679 0.2585059
0.43156138 0.1042582 0.34596655 -0.2662889 0.30013186 0.45341605 0.55845845 0.08061654
-0.033124685 0.20704208 0.04493608 0.23818573 0.022648543 -0.0029516525 0.042271987 -0.0032124391
0.3478319 0.3698925 -0.061867014 0.2664902 0.3164329 0.4818324 0.039208163 0.5507548
0.39525396 0.37349695 0.27214572 0.17296828 0.46547088 0.35961685 0.17447136 0.44621482
0.22967935 0.4882649 0.24916805 0.40399832 0.3589038 0.5701489 0.16364194 0.45622292
0.40042117 0.060013156 0.22342254 0.3516415 0.094516575 0.40697452 0.5544164 -0.009644693
0.2415862 0.47344998 -0.022212924 0.061717995 -0.010919841 0.13666655 0.052623093 0.40201437
0.29726982 0.27275395 0.09186437 0.026194466 0.2748212 0.011266591 0.27750802 0.5589076
0.41312554 0.2333375 0.58774704 0.2511327 0.54531294 0.49194276 0.23961936 0.26122338
00000000: 4094 f63c c821 c7bb c2fd 47bc 17fd ad3c
00000010: 157b bbbb 53ad 043d 5354 f53c 2a9f cf3c
00000020: 3413 39bd a70b b9bd 64ad 6cbd 148d 0dbb
00000030: c497 b3bd cb86 883d 2286 6ebd af00 6cbd
00000040: a6c9 e23c e4c3 36be 4ca7 d2bd 5bee 8dbd
00000050: 7a8c 92bd de7c 41be 2337 09bd 243a 72bd
00000060: 6597 0abd 3e41 81bc 8304 36be b3f1 e2bd
00000070: 4cbb d63d 9d19 bdbc b076 113e 973c 823d
00000080: 0116 41be b16f a0bc 3e5d babd a617 2fbe
00000090: eb73 553d aa4c d0bd 8099 d6bd cae1 5c3e
000000a0: c8eb 11be a6d4 c0bd df5c a93d 5f3d 65bd
000000b0: 26b1 9dbd f38c d83d 95cb 8cbd cd52 4bbe
000000c0: e132 8ebd 3176 823d c91a 89be 473e 44be
000000d0: e3c0 f9bd d6c5 003d 06cc 793e 0214 41be
000000e0: b065 b83c 6497 53bc aa51 6bba 6b0c a2b8
000000f0: 4c08 0c3c d95b b03a f178 3cbc f57d 483b
00000100: 0265 193e 6812 823c 00ca 583d 5a2e dcbd
00000110: b253 d43e 4169 a93d 79f8 c43b e9cd 513d
00000120: 7973 c73e 8b50 78bd 31da 54be e3ce 52be
00000130: de38 d8bd f19b b3bd bae7 323e fab4 0bbe
00000140: 7da6 fdbc de3c 053e 611d eebd 29f4 8f3c
00000150: b2c2 f43e 6a02 b8bd cdc8 d3bd 2d8e 853e
00000160: 17f3 183e 07a6 853e 10b4 353d 7b0f 6b3e
00000170: a596 843d eef2 03be 1c0d e13e 5721 ae3e
00000180: 0ed4 cb3e 4235 24be f8bf 783e 12e0 043e
00000190: b770 5cbe 16c0 67be 0353 743e a1bb 373e
000001a0: 5e7c efbd d7fe 833e 6cae 84be d7b9 4dbe
000001b0: 4252 763e 180b b73e cbdf 8fbc 9186 d6bd
000001c0: 548a 33be 4413 cf3e b8c1 6b3c 6c68 8c3e
000001d0: dc18 b03e 1134 bd3d bf7e 1a3f 00af f43d
000001e0: c662 d3bb af2c 463e 71b6 a03e 2a40 d43e
000001f0: b4aa 1d3e eafe 163d 8df6 f33e 5acf 78bd
00000200: a7de 0b3e 1d2d 923e 78dd a4bd f3b1 18be
00000210: a408 903d 5067 45ba dd24 1e3e 51a2 553e
00000220: 4973 3dbd 8c3b 5abd b283 5bbe c564 213b
00000230: 3e27 8b3b 5749 31bb 2bc8 00be 2688 01bd
00000240: df7f 81bd 99dc 5b3d 28be d1bd 215a 863b
00000250: df20 55be 10dc f4bd f793 c13a d941 7e3e
00000260: 51ee 993e e259 3c3e e321 8c3c d988 833c
00000270: f7b9 193e d5f4 63bd d340 f0bd e3a7 a63e
00000280: 43b5 5dbc c3f7 6bbd 101f 7fbc 4c33 4f3d
00000290: 9d5d f1bd a114 b7bd 5db5 ebbd 2f11 983e
000002a0: 2ce7 573e 9fc2 7e3d 4aac 853e c85c 323e
000002b0: fb92 9a3d 9ee8 6f3e 76b2 81bd 2115 d43e
000002c0: 1773 883e eb61 12bc 3977 5dbc 1106 a83e
000002d0: 70c1 46bd c037 00be 152f 1b3e e35a 843e
000002e0: 9df5 dc3e 5385 d53d 8722 b13e 0557 88be
000002f0: e2aa 993e 2626 e83e 22f7 0e3f 491a a53d
00000300: c0ad 07bd d702 543e e50e 383d f6e6 733e
00000310: 7089 b93c 8370 41bb 6425 2d3d c987 52bb
00000320: 0617 b23e 8d62 bd3e 4468 7dbd 6771 883e
00000330: 7e03 a23e bdb2 f63e bd98 203d 44fe 0c3f
00000340: ba5e ca3e fe3a bf3e af56 8b3e 991e 313e
00000350: 3352 ee3e b31f b83e 9fa8 323e 4576 e43e
00000360: 1031 6b3e dbfd f93e e925 7f3e ded8 ce3e
00000370: 3dc2 b73e 47f5 113f c191 273e 0d96 e93e
00000380: 0104 cd3e 5bd0 753d e1c8 643e 5b0a b43e
00000390: e891 c13d f75e d03e 3cee 0d3f c604 1ebc
000003a0: 5f62 773e 0968 f23e e1f7 b5bc 02cc 7c3d
000003b0: 22e9 32bc 51f2 0b3e 508b 573d d4d4 cd3e
000003c0: c033 983e 68a6 8b3e 6323 bc3d c795 d63c
000003d0: 5db5 8c3e 8297 383c 8815 8e3e 9214 0f3f
000003e0: 3185 d33e 07f0 6e3e 9776 163f 7794 803e
000003f0: a199 0b3f ecdf fb3e c75e 753e 12bf 853e

model.0.bias f4 [32]
-0.0006660818 0.3817019 0.37620068 0.11939156 0.093752846 0.27373332 0.007742134 0.352516
-0.03920722 0.36204362 0.32910806 0.010568144 0.04309909 0.29852512 -0.13918903 -0.008508499
0.40917537 0.19609566 0.061938956 0.1262489 0.17165552 0.35288927 0.08927154 0.3406465
0.26077065 0.122260354 -0.12314738 0.3685814 0.2126898 0.22898187 0.4562506 0.16244921
00000000: fe9b 2eba 6e6e c33e 609d c03e 9083 f43d
00000010: 7e01 c03d c626 8c3e bab1 fd3b fa7c b43e
00000020: c097 20bd c85d b93e da80 a83e 0226 2d3c
00000030: ac88 303d 49d8 983e 9287 0ebe 3b67 0bbc
00000040: 6f7f d13e 4dcd 483e b4b3 7d3d 6447 013e
00000050: 77c6 2f3e e7ad b43e ffd3 b63d 3869 ae3e
00000060: bb83 853e a363 fa3d b234 fcbd b4b6 bc3e
00000070: 5bcb 593e 397a 6a3e ae99 e93e 1659 263e

model.2.0.weight f4 [32, 32]
0.08665325 0.3697398 0.13933532 -0.059718333 -0.19197725 -0.025339594 0.023705918 -0.25411892
-0.1978369 0.27339816 0.3018727 0.13320576 -0.054801725 -0.2090176 -0.15572557 0.08844793
0.5407827 0.24106011 -0.00526271 0.11224236 -0.35165706 -0.2765385 0.16559136 0.43279806
-0.31082603 0.12368207 0.031615153 -0.31740576 0.04640557 0.33404765 0.45932704 -0.16537637
0.043511946 0.26927498 0.041951697 0.034069676 -0.08675141 -0.06545362 0.02787866 -0.43454635
-0.22769657 0.25453016 0.20692272 0.00041774576 -0.05475332 0.23030123 -0.2411872 0.055955905
0.4615106 0.097109936 -0.03272632 -0.22010157 -0.041939087 -0.016878022 0.034924656 0.27902243
-0.17099722 0.054771956 0.07215638 0.09676234 -0.22598866 -0.05197113 0.1471109 -0.09574679
-0.3722108 -0.23635313 -0.1337556 -0.26141328 0.09025491 -0.2695063 -0.18284552 -0.40866193
0.15282924 0.24749362 0.3851945 -0.0244938 0.03013586 -0.08254534 0.23126741 -0.071648926
-0.18868248 0.10684013 0.04911985 -0.072955675 -0.16034749 -0.016380629 -0.047692843 0.110262044
0.009997043 -0.034086034 -0.24738294 -0.15618293 -0.3046714 0.10372611 0.19854361 -0.15985993
0.30627617 -0.07201468 0.2666775 0.3803271 -0.07392115 0.22924894 0.066424504 -0.8975781
0.26802218 0.38926145 0.25675952 0.0178642 0.0005845041 0.057627816 0.03875956 0.2883787
-0.2203778 0.10070566 0.045040056 -0.08750612 0.041775197 -0.24486282 -0.02961177 0.43265882
0.14469068 -0.024380323 -0.38514206 -0.31300828 0.2789561 0.35684606 0.40487638 0.25089064
-0.09997837 -0.2576838 0.276552 0.3687734 0.46130067 -0.1322893 0.12726198 0.5977719
0.16518496 0.27707964 0.007285274 0.0679812 0.053653095 0.08611228 -0.059034638 -0.09282237
-0.31859347 0.46938887 0.12893741 0.41319466 0.58875525 0.90740496 0.18896331 0.15229285
0.67219895 0.27021065 -0.057242427 0.4713088 -0.11364258 0.06861382 0.1924923 -0.05454227
-0.09892108 0.43232143 -0.2792245 -0.1426594 0.4463998 0.027471585 -0.39287832 0.2943325
-0.08935875 -0.4191753 -0.17726703 -0.25812188 -0.24924323 0.014595144 -0.11641674 0.27141863
0.014025421 -0.025994174 -0.35087737 -0.36865383 -0.11381605 0.45058498 -0.07849365 -0.15106863
0.28780913 0.12859377 0.079144605 0.6353954 -0.20903307 -0.040271647 -0.26518595 0.1395116
-0.23469554 0.0015169514 0.09486989 0.054465182 -0.3061316 -0.14998955 -0.38018999 -0.02676077
-0.007005189 0.018370558 -0.15202431 -0.26040766 -0.30069658 -0.05804965 0.25108755 -0.09399888
-0.07503712 -0.08139816 -0.014832369 -0.25465903 -0.019840948 -0.15916876 -0.058388945 -0.018798584
-0.0660135 -0.0031987592 0.09685413 0.13883665 -0.14806187 -0.0268424 0.029090866 -0.22745928
0.18374698 0.6285623 0.33883968 -0.35797507 0.24016452 0.067411095 0.057220157 0.5463102
-0.043724976 0.046591375 0.18655273 -0.31010756 -0.20136186 -0.09303995 0.28571758 -0.1879097
0.58952856 -0.15667084 -0.5073715 -0.36446345 -0.7967658 -0.15087497 -0.3647745 0.06792768
-0.6847053 -0.30201912 0.1033248 0.03454433 0.18487833 -0.061061777 0.22466677 -0.023441337
00000000: 4277 b13d 894e bd3e ebad 0e3e 369b 74bd
00000010: af95 44be fb94 cfbc ea32 c23c e01b 82be
00000020: c295 4abe d8fa 8b3e 0f8f 9a3e 1767 083e
00000030: c677 60bd b608 56be 8676 1fbe 3024 b53d
00000040: bc70 0a3f 76d8 763e d072 acbb 53df e53d
00000050: 650c b4be 7496 8dbe c890 293e b597 dd3e
00000060: 9724 9fbe 064d fd3d e47e 013d 0283 a2be
00000070: c413 3e3d 4b08 ab3e ea2c eb3e 6c58 29be
00000080: 9539 323d 69de 893e 8bd5 2b3d a58c 0b3d
00000090: b9aa b1bd 8c0c 86bd ca61 e43c dc7c debe
000000a0: 4a29 69be c751 823e 8de3 533e e304 db39
000000b0: 0445 60bd 16d4 6b3e c7f9 76be 0532 653d
000000c0: 1e4b ec3e 93e1 c63d 090c 06bd 4e62 61be
000000d0: 52c8 2bbd c743 8abc 280d 0f3d 07dc 8e3e
000000e0: e519 2fbe 8f58 603d b9c6 933d 552b c63d
000000f0: 9269 67be aedf 54bd 3da4 163e e516 c4bd
00000100: 6a92 bebe 8e06 72be 3af7 08be f6d7 85be
00000110: 91d7 b83d bbfc 89be db3b 3bbe 233c d1be
00000120: 457f 1c3e f86e 7d3e 3738 c53e 39a7 c8bc
00000130: 7bdf f63c 880d a9bd 5dd1 6c3e acbc 92bd
00000140: fb35 41be 00cf da3d e531 493d c969 95bd
00000150: 2232 24be ab30 86bc 9259 43bd 11d1 e13d
00000160: a3ca 233c cc9d 0bbd f451 7dbe 6bee 1fbe
00000170: e4fd 9bbe 5b6e d43d 044f 4b3e 52b2 23be
00000180: 3bd0 9c3e 6f7c 93bd f489 883e 3cba c23e
00000190: f963 97bd 3cc0 6a3e 9209 883d aec7 65bf
000001a0: 343a 893e 474d c73e fc75 833e f157 923c
000001b0: 6839 193a 250b 6c3d 58c2 1e3d 5fa6 933e
000001c0: b8aa 61be c53e ce3d ec7b 383d 6936 b3bd
000001d0: 781c 2b3d 52bd 7abe 6294 f2bc 7585 dd3e
000001e0: cb29 143e 3eb9 c7bc 5731 c5be 9f42 a0be
000001f0: 55d3 8e3e 87b4 b63e f54b cf3e bd74 803e
00000200: 76c1 ccbd 22ef 83be 3998 8d3e decf bc3e
00000210: 9a2f ec3e d976 07be f750 023e 9407 193f
00000220: 3f26 293e 62dd 8d3e 4fb9 ee3b ba39 8b3d
00000230: 59c3 5b3d a35b b03d 4ece 71bd a819 bebd
00000240: af1e a3be bd53 f03e 2b08 043e 408e d33e
00000250: aab8 163f b14b 683f 997f 413e a8f2 1b3e
00000260: 3b15 2c3f 0d59 8a3e 0977 6abd 634f f13e
00000270: 71bd e8bd 6785 8c3d b41c 453e b767 5fbd
00000280: 2397 cabd 3c59 dd3e 83f6 8ebe 4e15 12be
00000290: 848e e43e 170c e13c 5927 c9be c0b2 963e
000002a0: b801 b7bd 259e d6be 7d85 35be 8d28 84be
000002b0: 9e39 7fbe 7920 6f3c e66b eebd 62f7 8a3e
000002c0: e1ca 653c bcf1 d4bc 33a6 b3be 32c0 bcbe
000002d0: 6418 e9bd 13b3 e63e 47c1 a0bd bcb1 1abe
000002e0: b85b 933e 16ae 033e 9116 a23d 46a9 223f
000002f0: c40c 56be e2f3 24bd 74c6 87be 21dc 0e3e
00000300: 0754 70be 71d4 c63a 254b c23d e216 5f3d
00000310: 48bd 9cbe dc96 19be 43a8 c2be 6739 dbbc
00000320: c98b e5bb da7d 963c 43ac 1bbe 2754 85be
00000330: e7f4 99be 78c5 6dbd 8c8e 803e 7c82 c0bd
00000340: 10ad 99bd 14b4 a6bd 7703 73bc ab62 82be
00000350: 7c89 a2bc 23fd 22be 3f29 6fbd 7dff 99bc
00000360: 1632 87bd 46a2 51bb 755b c63d 322b 0e3e
00000370: 889d 17be 98e4 dbbc f84f ee3c 16eb 68be
00000380: 2b28 3c3e 75e9 203f 657c ad3e 8248 b7be
00000390: b0ed 753e d40e 8a3d af5f 6a3d fcda 0b3f
000003a0: f618 33bd 99d6 3e3d ae07 3f3e 6bc6 9ebe
000003b0: ce31 4ebe bb8b bebd 9349 923e 676b 40be
000003c0: 58eb 163f 526e 20be 19e3 01bf f49a babe
000003d0: d8f8 4bbf f87e 1abe b9c3 babe ab1d 8b3d
000003e0: d948 2fbf 40a2 9abe f49b d33d 5b7e 0d3d
000003f0: bf50 3d3e ea1b 7abd 0c0f 663e 0c08 c0bc

model.2.0.bias f4 [32]
0.08550416 0.18354313 -0.13806848 0.241774 -0.12877652 0.14573476 -0.2389494 0.2797499
-0.2228064 0.19099937 -0.045194957 0.11489325 0.16281371 -0.010102669 -0.17676885 0.095031396
-0.22427355 -0.09901381 0.27050018 0.18791535 -0.10436267 -0.21825792 0.027972236 0.08726231
-0.24266748 0.39085054 0.036610045 -0.25252312 0.14193042 -0.1801256 -0.047053747 -0.2853747
00000000: ce1c af3d bbf2 3b3e d361 0dbe 9a93 773e
00000010: fedd 03be 7e3b 153e 27af 74be 613b 8f3e
00000020: 5c27 64be 5795 433e 591e 39bd 274d eb3d
00000030: a3b8 263e aa85 25bc e502 35be d29f c23d
00000040: f7a7 65be c1c7 cabd 007f 8a3e e26c 403e
00000050: 18bc d5bd 017f 5fbe 0826 e53c 95b6 b23d
00000060: d37d 78be 901d c83e 6af4 153d b64a 81be
00000070: 3556 113e d872 38be 6ebb 40bd a21c 92be

model.3.0.weight f4 [32, 32]
-0.36618954 0.044926517 -0.18356162 0.27400112 -0.048073757 -0.07453114 0.119384535 -0.11573799
0.08943367 -0.12591708 0.03572316 0.14953735 -0.028220778 -0.0022711388 0.17338693 -0.1142587
0.105976015 0.028305557 0.21075718 -0.18686141 0.09971747 -0.027049467 -0.14206408 -0.31660417
-0.08672929 -0.24300246 0.13149253 0.15255895 -0.1885632 -0.2149083 0.035919387 -0.12285585
0.00078395894 -0.019422235 -0.19058746 -0.1269026 -0.026924554 -0.12917428 -0.23500131 -0.03191111
-0.027119968 -0.12076089 -0.0027907658 0.039705794 0.039302003 -0.062095493 0.08971036 -0.0682113
0.042680215 -0.2698754 -0.19697922 -0.17292936 -0.05608966 -0.018559385 -0.14208712 -0.090130694
0.0902424 0.10108406 0.03980155 0.05257185 0.039975755 -0.15245955 -0.21103339 -0.19436342
-0.13585441 -0.092865944 0.12237708 -0.06813971 0.030257829 -0.16614857 -0.1018398 -0.11363219
-0.10470109 -0.094552115 -0.09494819 -0.22426248 0.06601935 0.031869765 -0.15653601 -0.14798045
-0.08576631 -0.0881852 0.05726329 -0.16831626 -0.009981766 0.15248758 -0.013254502 -0.009873569
-0.053081214 0.023250105 -0.23721552 0.11357964 -0.08287189 -0.044348348 -0.013434132 -0.07525068
-0.10078955 -0.1817861 0.050559506 -0.06233743 0.024978539 -0.07871695 0.010888894 -0.088248506
-0.023856353 -0.13673702 0.095725164 -0.11714427 -0.075158924 -0.2521254 0.17326932 -0.19245714
0.13253668 -0.14060391 0.014072726 -0.28068286 0.06959435 0.057938598 -0.24456207 -0.21258035
-0.020521026 -0.02467396 -0.17181484 0.058646686 -0.059574675 0.010038768 -0.16147639 0.14082718
-0.1523302 0.1327526 -0.00683359 -0.23293485 0.14875747 0.015043969 0.012430558 0.28977376
0.042573683 0.4043408 -0.03136669 0.07380466 -0.015929967 0.062415622 -0.06836797 -0.06056625
0.06866844 0.08165009 -0.03476768 0.15868394 0.17769055 0.16733758 0.0650582 0.12407532
0.017572006 -0.0024482782 0.03504456 0.07245944 0.17296322 -0.012864571 0.04816201 -0.11915087
-0.151278 -0.2128785 0.36769825 -0.12658215 0.4173467 -0.32273433 -0.14926024 -0.5528845
0.21064359 -0.67670655 -0.3185795 0.05183355 0.114450224 0.10225318 0.14434448 -0.004166485
-0.040700972 0.10750811 -0.061432023 -0.15207425 -0.08577136 -0.04559323 -0.0612951 0.033479087
-0.027413614 -0.7298957 0.023322348 -0.22048733 0.066698894 -0.058798376 0.16423352 0.078113504
0.0077889147 0.06869087 0.1444919 -0.038559042 0.15014337 0.070038304 0.03633662 0.019921212
-0.322077 0.03885562 -0.1476672 0.008380744 -0.12543142 0.050964564 -0.033636853 -0.08247966
0.061708592 -0.17330882 0.08007118 -0.22360697 -0.18962485 -0.0057359333 -0.011797622 -0.21541555
-0.16090538 -0.034810107 -0.21313561 -0.05919299 -0.15426973 0.13191329 -0.19104609 0.19252817
0.029026438 -0.016739935 0.092678815 0.049178574 0.42190564 0.1750848 0.17017624 -0.013200885
0.39318615 -0.3201031 0.13587399 -0.05353276 0.25518847 0.065054186 -0.20166631 0.008231926
-0.14544375 0.3144289 -0.4071433 0.06637397 -0.20465228 0.0106517095 -0.40162632 0.23999585
-0.0995304 -0.3135317 0.15821175 -0.08031638 0.031688374 0.051140226 0.099470034 -0.06617101
00000000: 327d bbbe de04 383d 94f7 3bbe e049 8c3e
00000010: fde8 44bd c8a3 98bd e17f f43d 0a08 edbd
00000020: 0029 b73d 68f0 00be 7352 123d 5220 193e
00000030: 432f e7bc 63d7 14bb 588c 313e 7700 eabd
00000040: f409 d93d 0ee1 e73c bbd0 573e 9958 3fbe
00000050: ac38 cc3d d896 ddbc 3f79 11be f119 a2be
00000060: 209f b1bd a3d5 78be faa5 063e 6a38 1c3e
00000070: b616 41be ec10 5cbe 3520 133d d99b fbbd
00000080: 9882 4d3a 611b 9fbc 5c29 43be c1f2 01be
00000090: e290 dcbc 4346 04be 2fa4 70be 39b5 02bd
000000a0: b22a debc 7c51 f7bd 48e5 36bb 8ba2 223d
000000b0: 23fb 203d d857 7ebd 11ba b73d 5eb2 8bbd
000000c0: 73d1 2e3d 1c2d 8abe ecb4 49be 6514 31be
000000d0: 45be 65bd da09 98bc 497f 11be 7196 b8bd
000000e0: 02d1 b83d 2905 cf3d f306 233d 9555 573d
000000f0: 9ebd 233d 5b1e 1cbe 2319 58be 3407 47be
00000100: 6b1d 0bbe 8030 bebd d6a0 fa3d d58c 8bbd
00000110: 44df f73c da22 2abe 6391 d0bd feb7 e8bd
00000120: 866d d6bd 8aa4 c1bd 3274 c2bd 10a5 65be
00000130: 2735 873d df89 023d fa4a 20be 3088 17be
00000140: 3fa6 afbd 719a b4bd e98c 6a3d 195b 2cbe
00000150: 908a 23bc b425 1c3e 6929 59bc c0c4 21bc
00000160: b06b 59bd 0177 be3c a0e8 72be 719c e83d
00000170: bdb8 a9bd 9da6 35bd d51a 5cbc 071d 9abd
00000180: c06a cebd 2326 3abe 7c17 4f3d 8855 7fbd
00000190: cb9f cc3c 5a36 a1bd 5567 323c a2bb b4bd
000001a0: 666e c3bc ca04 0cbe 8e0b c43d 56e9 efbd
000001b0: ecec 99bd 9516 81be 836d 313e 7c13 45be
000001c0: b2b7 073e 79fa 0fbe 4a91 663c aab5 8fbe
000001d0: 7c87 8e3d 0651 6d3d 7b6e 7abe aaae 59be
000001e0: b61b a8bc 0b21 cabc 3bf0 2fbe 8237 703d
000001f0: 9304 74bd a579 243c 115a 25be 0035 103e
00000200: 73fc 1bbe 4cf0 073e 4fec dfbb 7986 6ebe
00000210: e153 183e fb7a 763c 8aa9 4b3c 3a5d 943e
00000220: be61 2e3d c205 cf3e 5c7a 00bd e626 973d
00000230: 907f 82bc 86a7 7f3d 8204 8cbd 5114 78bd
00000240: 0aa2 8c3d 2a38 a73d 8e68 0ebd 0b7e 223e
00000250: 83f4 353e 8b5a 2b3e 3c3d 853d 341b fe3d
00000260: 2bf3 8f3c 4b73 20bb e28a 0f3d 9d65 943d
00000270: 451d 313e ecc5 52bc 8745 453d 5f05 f4bd
00000280: 9fe8 1abe d2fc 59be f242 bc3e c09e 01be
00000290: 77ae d53e 6f3d a5be add7 18be d789 0dbf
000002a0: f4b2 573e a43c 2dbf da1c a3be 6b4f 543d
000002b0: e164 ea3d 1e6a d13d 0acf 133e 0287 88bb
000002c0: 10b6 26bd 362d dc3d 25a0 7bbd 5ab9 1bbe
000002d0: e5a8 afbd f7bf 3abd 9210 7bbd 5e21 093d
000002e0: 8492 e0bc 72da 3abf 820e bf3c 6ec7 61be
000002f0: 6e99 883d 91d6 70bd d52c 283e f9f9 9f3d
00000300: 273a ff3b cdad 8c3d aff5 133e 16f0 1dbd
00000310: 2fbf 193e 3e70 8f3d b5d5 143d cf31 a33c
00000320: 47e7 a4be 1227 1f3d 1236 17be 634f 093c
00000330: 1871 00be 38c0 503d ccc6 09bd 19eb a8bd
00000340: 26c2 7c3d de77 31be 5cfc a33d 3af9 64be
00000350: 042d 42be 7ff4 bbbb d04a 41bc e595 5cbe
00000360: 61c4 24be 0b95 0ebd 3940 5abe 5974 72bd
00000370: e2f8 1dbe 4714 073e 96a1 43be 1b26 453e
00000380: dac8 ed3c 3022 89bc 64ce bd3d 796f 493d
00000390: 0404 d83e 6e49 333e ae42 2e3e 8648 58bc
000003a0: b24f c93e 8ee4 a3be 8d22 0b3e 2b45 5bbd
000003b0: 10a8 823e 213b 853d 9d81 4ebe 33df 063c
000003c0: 35ef 14be d3fc a03e 1675 d0be 13ef 873d
000003d0: 5e90 51be 8284 2e3c f7a1 cdbe 79c1 753e
000003e0: 98d6 cbbd 3a87 a0be 4302 223e ea7c a4bd
000003f0: abcb 013d 6a78 513d f2b6 cb3d ab84 87bd

model.3.0.bias f4 [32]
-0.2979346 -0.13404243 -0.07552414 -0.36880338 -0.05222206 -0.09036667 -0.032143705 -0.052404642
-0.18533875 -0.14193083 0.072023675 -0.039410345 -0.01705625 -0.21789922 -0.018576656 -0.14120135
0.05195226 0.00088467624 0.08195255 -0.07812383 -0.21105446 -0.022947462 -0.03510257 0.19659089
0.011712101 -0.09094175 -0.052162927 0.035178404 0.15497863 -0.03997957 -0.0093939835 0.17327839
00000000: e28a 98be 6b42 09be 66ac 9abd ccd3 bcbe
00000010: cce6 55bd 2912 b9bd 1ea9 03bd 40a6 56bd
00000020: 71c9 3dbe 5156 11be 2681 933d be6c 21bd
00000030: 8cb9 8bbc f920 5fbe 122e 98bc 1697 10be
00000040: e5cb 543d 9ee9 673a bdd6 a73d 63ff 9fbd
00000050: a91e 58be 51fc bbbc b6c7 0fbd 1f4f 493e
00000060: 1de4 3f3c ab3f babd cba8 55bd 3b17 103d
00000070: b8b2 1e3e 9ec1 23bd 39e9 19bc e46f 313e

model.4.0.weight f4 [32, 32]
0.0037452918 0.016575541 0.05103139 -0.101185046 -0.10220279 0.08225136 -0.034000088 -0.022913305
-0.10245638 -0.087076835 0.16097458 -0.044486567 0.18746477 -0.18706952 0.068553425 0.1402507
0.058914464 -0.12177052 -0.086317755 -0.044138424 -0.11944622 -0.054993827 -0.1963646 0.020322887
0.3499392 -0.112885274 -0.043150757 -0.036304187 0.11392854 -0.050440233 0.09992356 0.03845223
-0.15690434 0.13921513 -0.21173167 -0.035747927 -0.010622668 0.101245485 0.028409574 0.13334188
-0.07962202 0.20555928 -0.055423766 -0.1519861 -0.03331757 0.06838714 0.025781129 -0.07807531
0.09935535 0.086028345 -0.078251764 -0.006257432 0.04620118 0.14711511 -0.1946215 -0.16912033
0.31986055 -0.04147119 -0.09002251 0.10841449 0.051935215 -0.16211939 -0.15572706 0.021837765
0.061589483 -0.10976318 -0.03413903 -0.13073175 -0.07755916 -0.023868034 -0.1323344 -0.082035676
0.023275597 -0.036312122 -0.07317298 -0.16669142 -0.009568114 0.06911153 -0.13312404 0.11488449
0.09175609 -0.07963573 0.061904196 -0.061605245 -0.029362634 -0.07236905 0.079861216 -0.017402243
-0.04432782 0.1623795 -0.079118274 -0.09946254 -0.005535061 -0.121455036 0.09199076 -0.09810802
-0.03462362 0.0043159807 0.037774403 0.052287653 -0.12112947 -0.18728189 -0.14269024 -0.08432381
0.037779108 -0.00025758045 -0.20002624 -0.0879433 -0.077009834 -0.10208921 0.03535932 -0.03346725
0.08406586 -0.06786285 -0.047999296 -0.039433435 -0.005491924 0.075225204 -0.040335987 -0.20668332
-0.066993214 -0.023925249 0.08798093 -0.05592808 -0.120926864 -0.009074596 -0.0060118437 -0.12788588
0.0052669398 0.113769785 -0.09034728 -0.19632366 0.18152486 -0.20784912 0.17598948 0.07464801
0.024553668 0.2160896 0.005766513 0.048340805 -0.06970398 -0.17405967 -0.07482858 -7.859232e-05
-0.015693812 -0.20804462 0.11310097 0.06825015 0.075541794 0.24375194 0.070793845 0.042026334
0.31998482 0.08534109 -0.17366777 0.058163293 0.15814383 0.14733997 0.026210405 0.1721729
0.22026128 0.1221948 0.14380176 -0.023411168 0.18857247 0.36297223 -0.29309693 0.24033377
0.16246416 -0.06913381 -0.2119792 0.33371156 0.1639412 0.038974162 -0.23725857 -0.16020443
0.1708522 0.19202928 -0.11847424 -0.12496391 0.108204335 -0.032206777 -0.26544523 -0.26035538
0.10955133 0.13010517 0.16490269 0.035294425 -0.25071478 -0.04812557 0.19534363 0.090431444
-0.075873725 0.19062734 -0.16152191 0.11462883 0.005216186 0.114532985 0.12738092 -0.007753316
-0.13986567 0.15838253 -0.028608486 -0.01848922 -0.06811932 0.09051728 0.020057203 -0.109139316
-0.09305597 -0.024283035 -0.26389247 -0.18246236 -0.1371065 -0.06519397 -0.20797157 -0.10348616
-0.008860845 -0.01723587 -0.006766493 -0.04313772 0.1057754 -0.11327475 0.07977338 -0.14132646
0.11855255 0.043292623 0.21425441 -0.02033218 0.11374837 0.1090219 0.034308676 0.14687154
-0.03534013 0.09080913 -0.20214088 0.020414762 0.18361223 0.035275232 0.23675014 0.11161303
0.12895192 -0.024030864 0.100076824 -0.086382136 -0.08027792 -0.076730944 -0.06157402 0.10368715
0.051246636 0.1467053 -0.06996725 0.12856106 0.115353785 -0.06673446 -0.005050609 0.1023926
00000000: 9273 753b 6ec9 873c 4a06 513d 1b3a cfbd
00000010: b24f d1bd 6773 a83d ad43 0bbd afb4 bbbc
00000020: a7d4 d1bd 5755 b2bd 85d6 243e 8c37 36bd
00000030: c4f6 3f3e 278f 3fbe bd65 8c3d e19d 0f3e
00000040: 4b50 713d d362 f9bd 5dc7 b0bd 7eca 34bd
00000050: 38a0 f4bd 3541 61bd cd13 49be 2f7c a63c
00000060: 3b2b b33e 6530 e7bd d9be 30bd b3b3 14bd
00000070: 5e53 e93d 6b9a 4ebd b9a4 cc3d 1680 1d3d
00000080: 88ab 20be 698e 0e3e 30d0 58be 6b6c 12bd
00000090: b30a 2ebc cb59 cf3d 32bb e83c c68a 083e
000000a0: df10 a3bd 227e 523e 0804 63bd 3fa2 1bbe
000000b0: 0178 08bd 8f0e 8c3d f232 d33c f3e5 9fbd
000000c0: d17a cb3d a12f b03d 7642 a0bd 250b cdbb
000000d0: 733d 3d3d 58a5 163e dc4a 47be e12d 2dbe
000000e0: c3c4 a33e b2dd 29bd b95d b8bd 6b08 de3d
000000f0: 05ba 543d a002 26be ea76 1fbe 1de5 b23c
00000100: 4145 7c3d 85cb e0bd 5ed5 0bbd 8bde 05be
00000110: 56d7 9ebd e586 c3bc ab82 07be 5202 a8bd
00000120: 77ac be3c 05bc 14bd b7db 95bd 28b1 2abe
00000130: 94c3 1cbc 598a 8d3d ab51 08be 8f48 eb3d
00000140: 9eea bb3d 0f18 a3bd 418f 7d3d c855 7cbd
00000150: e889 f0bc 3936 94bd 478e a33d 268f 8ebc
00000160: 1791 35bd d046 263e c308 a2bd 04b3 cbbd
00000170: 755f b5bb 6bbd f8bd a765 bc3d dcec c8bd
00000180: 7fd1 0dbd 126d 8d3b 55b9 1a3d 942b 563d
00000190: ba12 f8bd d3c6 3fbe 641d 12be f6b1 acbd
000001a0: 44be 1a3d dd0b 87b9 aed3 4cbe 9e1b b4bd
000001b0: 55b7 9dbd 2614 d1bd efd4 103d f514 09bd
000001c0: b92a ac3d aefb 8abd e99a 44bd f484 21bd
000001d0: 99f5 b3bb ac0f 9a3d 5937 25bd cba4 53be
000001e0: bd33 89bd e2fe c3bc 592f b43d d814 65bd
000001f0: 81a8 f7bd 9dad 14bc 00ff c4bb 84f4 02be
00000200: 4b96 ac3b 2200 e93d ff07 b9bd 1209 49be
00000210: a7e1 393e 66d6 54be 9636 343e 0ee1 983d
00000220: c624 c93c 9846 5d3e 04f5 bc3b 0201 463d
00000230: f6c0 8ebd b33c 32be ba3f 99bd eed1 a4b8
00000240: 4f90 80bc a609 55be 7ba1 e73d bcc6 8b3d
00000250: a8b5 9a3d 1c9a 793e 5dfc 903d ce23 2c3d
00000260: 0dd5 a33e 4fc7 ae3d f7d5 31be a23c 6e3d
00000270: 75f0 213e 4ae0 163e 34b7 d63c 184e 303e
00000280: 2c8c 613e 4441 fa3d c540 133e c7c8 bfbc
00000290: 2419 413e 7fd7 b93e cd10 96be 0e1a 763e
000002a0: 015d 263e 0796 8dbd 1311 59be 3edc aa3e
000002b0: 34e0 273e 5fa3 1f3d e9f3 72be a10c 24be
000002c0: e1f3 2e3e 53a3 443e 9fa2 f2bd 14ed ffbd
000002d0: 3c9a dd3d 41eb 03bd 70e8 87be 4d4d 85be
000002e0: 735c e03d 4a3a 053e 40dc 283e e390 103d
000002f0: b05d 80be 511f 45bd 2908 483e 1f34 b93d
00000300: af63 9bbd d033 433e 0066 25be 85c2 ea3d
00000310: 8aec aa3b 4590 ea3d 2570 023e 870f febb
00000320: f238 0fbe 082f 223e 585c eabc b476 97bc
00000330: 2482 8bbd 2061 b93d 014f a43c 6f84 dfbd
00000340: 2194 bebd 37ed c6bc ea1c 87be 6ad7 3abe
00000350: a565 0cbe 6b84 85bd 80f6 54be 8df0 d3bd
00000360: 142d 11bc 3d32 8dbc 75b9 ddbb 2eb1 30bd
00000370: c6a0 d83d 98fc e7bd 3a60 a33d e2b7 10be
00000380: aecb f23d 9b53 313d 8265 5b3e ac8f a6bc
00000390: e8f4 e83d e046 df3d 4187 0c3d 7e65 163e
000003a0: d0c0 10bd 23fa b93d 05fe 4ebe dc3c a73c
000003b0: d804 3c3e c37c 103d a16e 723e 5f95 e43d
000003c0: f90b 043e 60dc c4bc 14f5 cc3d 1ee9 b0bd
000003d0: c068 a4bd 1d25 9dbd 0a35 7cbd ee59 d43d
000003e0: fee7 513d ea39 163e fd4a 8fbd 83a5 033e
000003f0: 9b3e ec3d 14ac 88bd 947f a5bb 36b3 d13d

model.4.0.bias f4 [32]
0.20984788 0.08764716 -0.061938796 -0.030250125 0.115274884 -0.39237586 -0.15519561 0.093947604
0.053518586 -0.08276166 -0.014756449 0.05094299 -0.10107006 0.1636722 0.03543504 0.009410004
0.039916825 -0.001904686 -0.09405925 0.20738576 -0.10839958 -0.1812393 0.18364786 0.008394481
0.039053548 0.07714255 -0.12918107 -0.15529956 0.17404559 0.08812587 0.114434354 -0.008231279
00000000: 5de2 563e 5b80 b33d 89b3 7dbd 1ccf f7bc
00000010: 3d15 ec3d 7de5 c8be 99eb 1ebe 9a67 c03d
00000020: 4e36 5b3d f27e a9bd 08c5 71bc 99a9 503d
00000030: d2fd cebd af99 273e 5524 113d 6b2c 1a3c
00000040: d37f 233d a8a6 f9ba 23a2 c0bd ef5c 543e
00000050: 9900 debd cc96 39be 2f0e 3c3e 0189 093c
00000060: 9df6 1f3d eafc 9d3d 0b48 04be d906 1fbe
00000070: 0239 323e 567b b43d 8f5c ea3d 7ddc 06bc

model.5.0.weight f4 [32, 32]
-0.10668293 -0.106515974 -0.030216213 0.16673493 -0.11870427 0.13752508 0.12803173 0.08199988
0.092196696 -0.07376057 -0.068859264 -0.18656872 0.09067074 0.03138154 -0.042520836 -0.029986998
0.15626898 -0.10666437 -0.11675752 -0.09054747 0.07357653 -0.12812796 -0.03495345 0.00063957844
-0.19656661 -0.21867119 -0.07400104 -0.13599287 0.068849616 -0.0028169053 -0.09704403 0.036184143
0.15650176 0.18677944 -0.116118714 -0.14877407 -0.041355778 0.2760668 0.18442592 0.0704997
0.14387846 -0.12433166 -0.11788151 0.26227683 -0.15896551 -0.066213496 0.1754408 0.21497707
-0.027444089 0.03308449 0.051863298 0.04311306 0.040541727 0.12907341 -0.027875008 -0.16864313
0.1391264 -0.02160158 0.08936976 -0.1586203 -0.09383993 0.07059946 0.10983515 -0.13186297
0.1429608 0.21569335 0.12086361 0.16683923 0.16100512 -0.533549 0.07668986 0.13105023
-0.0073405704 -0.041934144 -0.059854575 -0.020841016 -0.29912794 0.031712983 -0.059714947 0.06843718
0.16601157 0.050359443 -0.48227748 0.04263924 -0.10731522 0.1358277 0.11889615 -0.016438846
-0.010164723 0.1838015 -0.016951399 0.07397938 0.19403432 0.2028931 0.093388215 -0.033619255
-0.117542356 0.09113658 -0.059715107 0.043128286 -0.08003458 0.064729355 0.047482774 -0.29580528
0.073626034 -0.07325949 -0.08159516 -0.14054368 -0.10084276 -0.055693954 -0.070841365 -0.020183666
0.097611435 -0.45446262 0.8229492 -0.21355264 -0.10758008 -0.050438747 -0.18590166 0.023510084
-0.06151055 -0.2256116 0.01704625 0.03908528 -0.094980605 -0.164291 -0.0996636 -0.002283748
0.011100663 0.16705692 -0.13062613 0.07496968 0.18821065 -0.124193765 -0.17820464 0.040708844
-0.1054733 0.20651475 0.16677831 -0.055003177 0.01706209 0.018139971 0.23686753 0.0011241289
-0.03462728 -0.094133854 -0.3582767 -0.033922218 0.18430555 -0.16678926 0.04017772 0.14031507
-0.045479387 0.10896596 -0.005867916 -0.1617619 -0.08201706 0.14160271 0.04097168 0.021892821
0.22022945 -0.02243408 0.16366602 -0.221658 0.25843728 -0.09577594 -0.073301114 0.014512717
0.17036323 0.0019499675 -0.053273953 -0.2213609 0.12629394 0.055415887 0.077324554 0.022133714
-0.0010026012 -0.007897727 0.6333433 -0.023971997 -0.041883867 0.10853627 0.130759 0.098698206
-0.020483851 -0.029043404 -0.041717518 -0.102445096 0.21621656 -0.00337801 -0.028198056 0.13512242
-0.3145217 -0.14675306 0.08403506 0.17384031 -0.23520431 0.029231431 -0.056691818 -0.0470291
-0.0054718195 -0.1469363 -0.07021968 -0.26119 -0.13981363 0.059670344 -0.16110988 0.08820348
-0.082570605 0.09218456 -0.18437767 -0.27006283 0.137851 0.14500357 -0.041521702 0.13461423
0.042779088 -0.20494273 -0.011988397 -0.09732223 0.009092386 -0.050127845 -0.28189772 0.00055007957
-0.0068786223 0.021507796 0.16523544 -0.08725287 -0.16029456 0.015040367 -0.06781541 -0.13752241
0.075439975 0.119187504 0.14124691 0.25856572 0.010357973 -0.08838158 0.040467944 0.20176288
0.1384362 0.1421787 0.034966964 0.07952812 0.0307502 -0.13958591 0.12450494 0.087406956
0.22702841 -0.13029838 -0.11733822 -0.1880142 0.11388564 -0.027342038 0.21485674 0.037213076
00000000: 947c dabd 0c25 dabd fe87 f7bc 90bc 2a3e
00000010: 391b f3bd 60d3 0c3e c01a 033e 8eef a73d
00000020: 9fd1 bc3d c80f 97bd 1606 8dbd df0b 3fbe
00000030: 95b1 b93d ee89 003d 542a 2ebd 4ba7 f5bc
00000040: fa04 203e d972 dabd 911e efbd f470 b9bd
00000050: 4baf 963d fa33 03be 592b 0fbd 62a9 273a
00000060: c248 49be 57eb 5fbe db8d 97bd b741 0bbe
00000070: 0701 8d3d d49b 38bb 05bf c6bd d335 143d
00000080: ff41 203e 1c43 3f3e a6cf edbd 3b58 18be
00000090: ad64 29bd a158 8d3e 26da 3c3e 2662 903d
000000a0: e054 133e 99a1 febd dc6b f1bd 2649 863e
000000b0: dbc7 22be f19a 87bd c1a6 333e f322 5c3e
000000c0: 6dd2 e0bc 9a83 073d 9c6e 543d 5297 303d
000000d0: 150f 263d d22b 043e 215a e4bc c9b0 2cbe
000000e0: 2777 0e3e ccf5 b0bc 7e07 b73d 5c6d 22be
000000f0: 262f c0bd 7396 903d 40f1 e03d 1607 07be
00000100: 5164 123e b8de 5c3e 5787 f73d e7d7 2a3e
00000110: 87de 243e ab96 08bf 930f 9d3d 0832 063e
00000120: 2b89 f0bb 23c3 2bbd 122a 75bd c7ba aabc
00000130: 4c27 99be 79e5 013d a997 74bd cb28 8c3d
00000140: f0fe 293e b445 4e3d 13ed f6be 7ca6 2e3d
00000150: 15c8 dbbd 6b16 0b3e d37f f33d c2aa 86bc
00000160: f089 26bc 7636 3c3e a9dd 8abc 8082 973d
00000170: efb0 463e 35c3 4f3e 5242 bf3d 58b4 09bd
00000180: 0cba f0bd d1a5 ba3d d497 74bd 49a7 303d
00000190: 2be9 a3bd d390 843d 4c7d 423d ca73 97be
000001a0: 3fc9 963d 1209 96bd 5d1b a7bd afea 0fbe
000001b0: a686 cebd 581f 64bd 4715 91bd 3758 a5bc
000001c0: 81e8 c73d 53af e8be ccac 523f 8bad 5abe
000001d0: f252 dcbd dc98 4ebd 015d 3ebe 3898 c03c
000001e0: 7df2 7bbd ba06 67be 94a4 8b3c e317 203d
000001f0: 3185 c2bd e63b 28be 6e1c ccbd efaa 15bb
00000200: 8edf 353c f810 2b3e dbc2 05be b489 993d
00000210: 4bba 403e 4d59 febd 477b 36be 51be 263d
00000220: 6302 d8bd 9a78 533e efc7 2a3e 034b 61bd
00000230: ccc5 8b3c 479a 943c 678d 723e 8257 933a
00000240: 56d5 0dbd 40c9 c0bd 0b70 b7be 06f2 0abd
00000250: 98ba 3c3e ceca 2abe 6591 243d c1ae 0f3e
00000260: 9848 3abd 8c29 df3d a647 c0bb e9a4 25be
00000270: 8ff8 a7bd 4d00 113e ecd1 273d 9358 b33c
00000280: d483 613e adc7 b7bc 1198 273e 51fa 62be
00000290: e451 843e 2d26 c4bd e51e 96bd bfc6 6d3c
000002a0: b373 2e3e 0d96 ff3a ca35 5abd 6fac 62be
000002b0: 3353 013e c5fb 623d 565c 9e3d c351 b53c
000002c0: b769 83ba 7865 01bc c922 223f ec60 c4bc
000002d0: 6b8e 2bbd 4448 de3d b0e5 053e 4922 ca3d
000002e0: c0cd a7bc 6fec edbc fddf 2abd bcce d1bd
000002f0: e067 5d3e 9a61 5dbb 9cff e6bc 885d 0a3e
00000300: fd08 a1be 6f46 16be 931a ac3d 3203 323e
00000310: 66d9 70be c176 ef3c ae35 68bd 96a1 40bd
00000320: f34c b3bb 7876 16be 56cf 8fbd b2ba 85be
00000330: 4e2b 0fbe e468 743d fdf9 24be 07a4 b43d
00000340: c71a a9bd 42cb bc3d 80cd 3cbe ad45 8abe
00000350: d028 0d3e d17b 143e a912 2abd 50d8 093e
00000360: 2039 2f3d 82dc 51be fb6a 44bc e150 c7bd
00000370: 3bf8 143c db52 4dbd e654 90be 3733 103a
00000380: 1166 e1bb 1e31 b03c 7b33 293e a2b1 b2bd
00000390: 4224 24be df6b 763c cee2 8abd add2 0cbe
000003a0: 4680 9a3d 9418 f43d 08a3 103e ba62 843e
000003b0: 7db4 293c 6701 b5bd b7c1 253d ee9a 4e3e
000003c0: 38c2 0d3e 4b97 113e 8539 0f3d a4df a23d
000003d0: d8e7 fb3c 9cef 0ebe 72fc fe3d 6b02 b33d
000003e0: 237a 683e f06c 05be 054f f0bd cb86 40be
000003f0: e03c e93d 69fc dfbc 6803 5c3e bd6c 183d

model.5.0.bias f4 [32]
-0.22535567 -0.10410576 0.0890996 -0.0026987726 0.15349174 0.23402222 -0.2142515 0.07017307
0.021545982 0.27504182 -0.031541582 0.05891816 -0.16471915 -0.13336718 0.14732248 -0.068741255
0.16743256 0.16151455 0.08643711 0.008363902 0.058033682 -0.111001566 -0.103042915 0.1445819
-0.2034699 -0.13439886 0.19132076 0.13774519 -0.09955143 -0.28070965 -0.008131653 0.0014326406
00000000: a3c3 66be 6735 d5bd da79 b63d e4dd 30bb
00000010: f02c 1d3e 85a3 6f3e bf64 5bbe e6b6 8f3d
00000020: 3381 b03c 48d2 8c3e bf31 01bd 2b54 713d
00000030: 23ac 28be 6891 08be b4db 163e 37c8 8cbd
00000040: 7173 2b3e 1264 253e f105 b13d bf08 093c
00000050: bab4 6d3d ca54 e3bd 2a08 d3bd 470d 143e
00000060: 6a5a 50be db9f 09be 97e9 433e 130d 0d3e
00000070: 9fe1 cbbd 2db9 8fbe a03a 05bc 71c7 bb3a

model.6.weight f4 [3, 32]
-0.07320427 -0.124466725 -0.13217363 0.24208722 -0.067619175 0.1958724 0.07586039 -0.060876977
-0.10970777 0.20323123 0.07832825 -0.16118304 0.2956577 -0.11704648 -0.100453444 0.047871944
-0.25612536 -0.0100997565 -0.16961907 -0.1417836 0.097281136 -0.04036158 -0.12363437 0.13690704
0.0151251415 -0.050686587 -0.07007164 0.353518 0.08013258 0.034998946 0.083297424 0.14049245
0.12906297 -0.041096162 0.17956989 -0.105142966 0.032348506 0.1104896 -0.07377753 0.086335905
0.045796797 0.18459629 0.12891804 0.08774349 -0.15900615 -0.03169666 0.19180538 0.070902355
0.06598407 0.06320544 0.042880706 -0.0053142174 0.052612863 -0.2813863 -0.06062572 0.15868153
-0.11123024 0.040432844 0.04597037 -0.016386814 0.10910849 -0.2839612 -0.042777687 0.002752069
0.0028159975 0.15899026 0.032392733 -0.07258787 -0.07710833 -0.16309495 0.29607713 0.24072123
0.12230182 -0.2026586 -0.06985817 -0.12658666 -0.07896809 -0.032649416 -0.11532647 -0.25616884
0.26172748 -0.23596412 0.01570935 0.06719046 -0.036323443 0.040734537 -0.056535807 0.13525753
-0.16443461 0.21042609 -0.17668657 -0.06596434 0.03588032 0.13210721 -0.011455009 -0.17450295
00000000: 1fec 95bd 69e8 febd 8658 07be b6e5 773e
00000010: ec7b 8abd c692 483e b15c 9b3d 235a 79bd
00000020: 78ae e0bd d91b 503e 906a a03d 2b0d 25be
00000030: 7260 973e 11b6 efbd 89ba cdbd 5f15 443d
00000040: dd22 83be 7379 25bc 9fb0 2dbe b82f 11be
00000050: 553b c73d 2f52 25bd 0434 fdbd 5c31 0c3e
00000060: 71cf 773c bd9c 4fbd b881 8fbd 5000 b53e
00000070: 8d1c a43d 0e5b 0f3d d797 aa3d 41dd 0f3e
00000080: 1529 043e 7354 28bd 2be1 373e 3255 d7bd
00000090: de7f 043d 5f48 e23d ac18 97bd e1d0 b03d
000000a0: 6c95 3b3d cf06 3d3e 1703 043e dcb2 b33d
000000b0: 82d2 22be 5bd4 01bd a168 443e 4135 913d
000000c0: a822 873d db71 813d aea3 2f3d e322 aebb
000000d0: 9680 573d dd11 90be ad52 78bd 697d 223e
000000e0: aecc e3bd e99c 253d 6d4b 3c3d a43d 86bc
000000f0: 4674 df3d 5d63 91be a837 2fbd 0e5c 343b
00000100: 998c 383b 58ce 223e 3eae 043d f3a8 94bd
00000110: f9ea 9dbd 5d02 27be 6c97 973e a07f 763e
00000120: 6079 fa3d bc85 4fbe cd11 8fbd ef9f 01be
00000130: 06ba a1bd 65bb 05bd 4930 ecbd 9028 83be
00000140: 2501 863e 94a0 71be e5b0 803c 279b 893d
00000150: e4c7 14bd 42d9 263d 1792 67bd f380 0a3e
00000160: 8c61 28be f079 573e 53ed 34be 5018 87bd
00000170: 3ef7 123d 1d47 073e caad 3bbc e7b0 32be

model.6.bias f4 [3]
0.0002344053 0.006879155 -0.2562521
00000000: b2ca 7539 896a e13b 7a33 83be

exp_avg f4 [32, 772]
0.0 0.0 0.0 0.0 0.0 0.0 0.0 0.0
-9.10093e-06 6.1221894e-05 1.3348599e-05 -2.4244677e-05 -1.6649405e-05 2.9326475e-06 -7.663481e-05 -2.1618729e-05
1.4067922e-05 4.0515715e-06 5.5447654e-06 2.3307402e-05 2.7680515e-05 8.712517e-06 7.329265e-06 1.6424488e-05
4.6405574e-05 2.5912345e-06 6.691094e-05 -3.8657687e-05 2.1290716e-05 -3.9351162e-05 -8.8815104e-05 5.8022866e-05
2.0029789e-05 -3.8054632e-06 7.274043e-05 2.2747921e-05 3.0282632e-05 -1.0968064e-05 5.042285e-05 5.7535814e-05
-3.6157027e-05 -8.005724e-05 7.4332886e-05 1.2545313e-05 -3.5374243e-05 -8.615345e-05 2.7188216e-05 -6.388915e-05
-3.375394e-05 -7.723035e-06 8.267622e-07 4.952204e-05 2.0999407e-05 2.823037e-06 -4.7243935e-05 6.1602164e-05
0.0 0.0 0.0 0.0 0.0 0.0 0.0 0.0
-7.4679174e-06 -1.2944503e-05 -1.8103023e-06 3.604989e-06 -1.1704499e-05 -2.848156e-06 -1.3986468e-05 -3.1947081e-06
-8.259011e-06 -7.1839786e-06 1.1570893e-06 5.696682e-06 3.0103916e-05 -1.8144515e-07 -1.4589405e-05 -9.466338e-06
-6.7159505e-07 -9.16423e-06 1.3634064e-05 9.432776e-06 -2.6710539e-05 -4.6910765e-05 1.7468287e-06 -1.7683422e-05
-1.171142e-05 3.4117e-05 -4.1539573e-05 -4.122141e-06 -3.5976975e-06 7.768302e-06 -1.546328e-05 -3.608641e-05
-1.3626081e-05 -1.4642511e-05 4.2646907e-06 3.2339653e-05 -3.4144803e-05 9.137303e-06 -8.473519e-06 -6.077463e-06
8.3154663e-07 -1.9098392e-05 6.5812847e-06 -1.5138243e-05 -9.418927e-06 -3.136312e-05 -8.6927014e-07 2.2388464e-05
2.0329899e-05 2.9281067e-05 -5.9455715e-06 -3.5389337e-05 -1.2912934e-05 -1.8620121e-05 -4.9191153e-06 2.510184e-07
-4.9162495e-08 -1.4101745e-05 -1.5961437e-05 -1.5395649e-06 -7.713581e-06 1.6959889e-06 -7.4831536e-05 -6.4073686e-07
-1.6777978e-05 -5.0031835e-05 5.795284e-06 -4.9345613e-06 1.4957736e-06 3.0618983e-06 -9.634289e-06 -5.129527e-05
-2.944132e-05 -9.885692e-05 8.079236e-06 -6.1255596e-06 1.5765047e-05 -1.8108087e-06 -1.203683e-06 -2.1358792e-05
-3.7548907e-05 4.9390244e-05 2.6802603e-05 -1.4432859e-05 -1.5152025e-05 -3.4643846e-05 -8.093142e-06 -2.682956e-05
-2.3560808e-05 -2.4985418e-05 8.045644e-06 -1.3894191e-05 -2.8425027e-05 1.9043107e-05 -4.59225e-05 -2.2810176e-05
-7.2399394e-06 7.842247e-06 -1.7821718e-05 -6.698369e-05 2.5235327e-06 2.3064654e-06 -5.7599673e-06 -4.2967436e-05
-2.7288302e-06 -3.1432132e-06 -3.656253e-05 -1.3780001e-05 4.0662044e-06 -1.251206e-05 7.4511813e-06 1.8821813e-05
-2.0125586e-05 -4.442551e-06 -2.8422312e-06 3.7607242e-05 -1.5100977e-05 2.1859198e-05 -1.263366e-07 -2.6827693e-06
3.5402816e-05 -3.2760003e-05 4.5079064e-06 2.953934e-05 5.4711777e-06 -1.3120065e-05 5.156411e-06 -3.2116357e-05
-1.1224394e-05 -1.1830799e-05 1.5506219e-05 -2.8544597e-05 -1.5099589e-05 -1.4055964e-05 3.9828403e-05 -2.2353499e-05
-2.3902474e-05 -3.2211843e-05 7.3191563e-06 -0.0001613146 2.6864363e-06 -1.8894494e-05 -7.7055165e-07 -5.59965e-05
-1.3724732e-05 -1.08687145e-05 -1.88301e-05 -5.838304e-05 -4.3783188e-05 6.1061146e-05 5.7436882e-06 -3.6762154e-05
3.2864315e-05 -2.195601e-05 -6.0152404e-05 -6.042627e-05 -2.2047221e-05 -2.0840529e-05 3.4519213e-05 6.5725753e-06
3.26456e-05 -6.6717766e-06 -2.7059625e-05 -2.0705225e-05 -2.187836e-05 -3.1353513e-05 2.1026823e-05 3.9383426e-06
-2.7151054e-05 1.8800898e-05 -2.7202235e-05 8.4597355e-05 -3.2531025e-05 -1.7270955e-05 -2.4808778e-05 2.9739708e-06
-6.318099e-05 -2.9292128e-06 2.4552131e-05 -1.780622e-05 -5.6232668e-05 -5.8108315e-05 4.528794e-05 2.9783308e-05
-9.063886e-06 -2.1457563e-06 -3.29441e-05 -5.135961e-05 4.0670024e-05 2.8053504e-05 -1.084351e-05 -7.93064e-05
00000000: 0000 0000 0000 0000 0000 0000 0000 0000
00000010: 0000 0000 0000 0000 0000 0000 0000 0000
00000020: 32b0 18b7 4164 8038 ccf3 5f37 0c61 cbb7
00000030: 53aa 8bb7 80ce 4436 00b7 a0b8 de59 b5b7
00000040: 4405 6c37 bcf2 8736 2c0d ba36 4484 c337
00000050: 7433 e837 fa2b 1237 e8ed f536 52c7 8937
00000060: 9ba3 4238 12e5 2d36 8a52 8c38 6024 22b8
00000070: 7799 b237 fd0c 25b8 3f42 bab8 945d 7338
00000080: a505 a837 5c61 7fb6 398c 9838 cad2 be37
00000090: 7507 fe37 7a03 38b7 1f7d 5338 9c52 7138
000000a0: 50a7 17b8 67e4 a7b8 2ae3 9b38 b679 5237
000000b0: ce5e 14b8 48ad b4b8 4012 e437 3afc 85b8
000000c0: 0493 0db8 2f92 01b7 aaee 5d35 e3b5 4f38
000000d0: e227 b037 6873 3d36 ca27 46b8 6930 8138
000000e0: 0000 0000 0000 0000 0000 0000 0000 0000
000000f0: 0000 0000 0000 0000 0000 0000 0000 0000
00000100: ec94 fab6 382c 59b7 83f9 f2b5 3ded 7136
00000110: 715e 44b7 f322 3fb6 6ca7 6ab7 ab64 56b6
00000120: 2f90 0ab7 e80d f1b6 494d 9b35 2026 bf36
00000130: ab87 fc37 43d3 42b4 04c5 74b7 9dd1 1eb7
00000140: a947 34b5 11c0 19b7 dcbd 6437 7741 1e37
00000150: 7210 e0b7 0dc2 44b8 9474 ea35 dc56 94b7
00000160: 2a7c 44b7 da18 0f38 c73a 2eb8 ec50 8ab6
00000170: f96f 71b6 9a54 0237 24b7 81b7 7d5b 17b8
00000180: 939b 64b7 1ba9 75b7 6a19 8f36 70a4 0738
00000190: b436 0fb8 6b4c 1937 7d29 0eb7 02ed cbb6
000001a0: 7337 5f35 7c35 a0b7 ced4 dc36 42fa 7db7
000001b0: fc05 1eb7 e58b 03b8 ca57 69b5 dcce bb37
000001c0: 208a aa37 9da0 f537 1280 c7b6 036f 14b8
000001d0: a1a4 58b7 6832 9cb7 e10e a5b6 b5c3 8634
000001e0: bc26 53b3 8996 6cb7 ede4 85b7 0ca3 ceb5
000001f0: 9469 01b7 bca1 e335 e0ee 9cb8 1aff 2bb5
00000200: 6fbe 8cb7 46d9 51b8 1c75 c236 8f93 a5b6
00000210: 64c2 c835 037b 4d36 f5a2 21b7 e025 57b8
00000220: c1f8 f6b7 6851 cfb8 0e8c 0737 288a cdb6
00000230: 2e3f 8437 ea0a f3b5 3c8e a1b5 a82b b3b7
00000240: d57d 1db8 5f28 4f38 27d6 e037 a824 72b7
00000250: 7435 7eb7 8c4e 11b8 c8c7 07b7 0b10 e1b7
00000260: 73a4 c5b7 c797 d1b7 c7fb 0637 191b 69b7
00000270: 4872 eeb7 c3be 9f37 e99c 40b8 7b58 bfb7
00000280: 9bee f2b6 3292 0337 d97f 95b7 9879 8cb8
00000290: f659 2936 c6c8 1a36 be45 c1b6 ef37 34b8
000002a0: f220 37b6 feef 52b6 b85a 19b8 a730 67b7
000002b0: 6e70 8836 e3ea 51b7 2905 fa36 89e3 9d37
000002c0: 5ed3 a8b7 3911 95b6 29bd 3eb6 78bc 1d38
000002d0: 345a 7db7 455e b737 24a7 07b4 a009 34b6
000002e0: 7c7d 1438 c967 09b8 9f42 9736 40cb f737
000002f0: 0f95 b736 401e 5cb7 3c05 ad36 adb4 06b8
00000300: 6850 3cb7 e57c 46b7 5a13 8237 0e73 efb7
00000310: 3e54 7db7 e8d1 6bb7 6c0d 2738 c683 bbb7
00000320: 2c82 c8b7 341b 07b8 1397 f536 8f26 29b9
00000330: a048 3436 9e7f 9eb7 e8d7 4eb5 c9dd 6ab8
00000340: 4643 66b7 c658 36b7 55f5 9db7 50e0 74b8
00000350: d7a3 37b8 f40d 8038 e8b9 c036 1031 1ab8
00000360: cad7 0938 2c2e b8b7 274c 7cb8 3772 7db8
00000370: 0cf2 b8b7 b2d2 aeb7 b9c8 1038 fe89 dc36
00000380: f2ec 0838 20de dfb6 1afe e2b7 22b0 adb7
00000390: 6c87 b7b7 9481 03b8 c262 b037 1b26 8436
000003a0: 72c2 e3b7 9fb6 9d37 5b30 e4b7 dc69 b138
000003b0: ec71 08b8 18e1 90b7 721c d0b7 6e94 4736
000003c0: 0980 84b8 7e93 44b6 4df5 cd37 915e 95b7
000003d0: 5edb 6bb8 54b9 73b8 8ef3 3d38 2bd7 f937
000003e0: 1811 18b7 d0ff 0fb6 752d 0ab8 f66a 57b8
000003f0: 1b95 2a38 7154 eb37 85ec 35b7 4d51 a6b8
